saved_models/best_model.pt (torch, 5997 bytes, 8 tensors)

fc1.weight f4 [8, 5]
0	0x3eb092ba	0.34486943
1	0x3e9036e5	0.2816688
2	0x3ef416e4	0.47673714
3	0x3f15a0c0	0.5844841
4	0x3ca73d7f	0.020415066
5	0x3eb7d615	0.3590552
6	0xbd5fcaf7	-0.05463692
7	0xbe8888a3	-0.26666746
8	0x3f305587	0.68880504
9	0xbd970061	-0.07373119
10	0x3edcd79b	0.43133244
11	0xbd9544cc	-0.072885126
12	0xbcb0e23b	-0.02159225
13	0xbced097a	-0.028935183
14	0xbf5ae041	-0.85498434
15	0x3ee1c286	0.44093722
16	0xbd8a9d51	-0.06768287
17	0x3d1f831a	0.038943388
18	0x3d56af70	0.052413404
19	0x3f5bd3a5	0.8586982
20	0x3ec4f2bc	0.38466442
21	0xbb51f8fc	-0.0032039275
22	0x3f369d12	0.7133342
23	0xbdc263a6	-0.09491663
24	0xbdaebca2	-0.085320726
25	0x3eae204b	0.34009013
26	0x3d164c5b	0.036693912
27	0xbf31828e	-0.69339836
28	0xbd9f0bb1	-0.07765902
29	0x3e161a85	0.14658554
30	0x3e936308	0.28786492
31	0x3e6e3076	0.23260674
32	0xbee304e9	-0.44339684
33	0xbec5c56f	-0.38627192
34	0xbe078580	-0.1323452
35	0x3ec27c3c	0.37985408
36	0x3c95dc65	0.018293569
37	0x3d92fb7c	0.07176873
38	0xbf3ff70b	-0.7498633
39	0x3da1cf38	0.07900852

fc1.bias f4 [8]
0	0x3e343fa7	0.17602406
1	0x3ec2a3aa	0.3801549
2	0x3edbe774	0.42950022
3	0x3edb2baa	0.4280675
4	0x3ec228d8	0.37921786
5	0x3ea9cf33	0.33165893
6	0x3e2d443b	0.16920559
7	0x3ebb05fc	0.36528003

fc2.weight f4 [16, 8]
0	0x3e9a502c	0.3013929
1	0x3ed22f10	0.4105153
2	0x3d8ce283	0.06879141
3	0xbd1c7470	-0.03819698
4	0xbd4a250f	-0.049351748
5	0xbc7c764b	-0.015409063
6	0xbe34cbaa	-0.17655817
7	0xbed8bebb	-0.42333016
8	0xbe923f56	-0.28563946
9	0xbd83e27a	-0.06439681
10	0xbde3ac9a	-0.111169055
11	0x3de415db	0.11136981
12	0xbe828c41	-0.2549763
13	0x3e91dcde	0.2848882
14	0x3e68b54e	0.22725412
15	0x3e209d21	0.1568494
16	0x3e86ab51	0.2630258
17	0xbe0d3ec9	-0.13793482
18	0xbd9dad89	-0.07699115
19	0x3dcf02bb	0.10107943
20	0x3ecb1130	0.3966155
21	0xbeb87f62	-0.36034685
22	0xbe810ff0	-0.25207472
23	0x3d2263bd	0.0396459
24	0x3e8f1af6	0.27950257
25	0x3e83cb1c	0.25740898
26	0xbe568647	-0.2094966
27	0x3e690829	0.22757019
28	0x3c478142	0.012176814
29	0xbd50b263	-0.050951373
30	0xbe605230	-0.21906352
31	0xbe95700e	-0.29187053
32	0xbcdaa871	-0.026691647
33	0x3dca7434	0.09885445
34	0x3edfe5d5	0.43730035
35	0xbedc5aeb	-0.43038115
36	0xbd0722cf	-0.03299218
37	0x3c77a777	0.01511561
38	0x3dac463e	0.08411835
39	0xbd97c805	-0.074111976
40	0xbe0380ed	-0.1284215
41	0xbdd526f1	-0.10407818
42	0xbec3945b	-0.38199124
43	0x3ec9ace6	0.39389724
44	0xbdd13ea3	-0.10217025
45	0x3e1a009e	0.15039298
46	0x3d8be296	0.06830327
47	0x3e1ad816	0.15121493
48	0x3cb0beb2	0.021575306
49	0x3cf892df	0.030343471
50	0x3ee0db39	0.43917254
51	0xbedccc2d	-0.43124524
52	0x3da5c1b3	0.08093586
53	0xbdb5625b	-0.088566504
54	0x3d053f04	0.0325308
55	0xbd08bd3c	-0.033383593
56	0xbe602fdc	-0.21893257
57	0x3e769d8d	0.24083538
58	0x3d599b41	0.053126577
59	0xbd4184f5	-0.04724594
60	0xbee406f2	-0.4453655
61	0x3ed25bdd	0.4108571
62	0x3e75109c	0.23932117
63	0xbde825bf	-0.113353245
64	0xbdd701c1	-0.104983814
65	0x3e32ca8c	0.17460078
66	0xbe84bcab	-0.25925192
67	0x3e8e665f	0.27812478
68	0xbea462bb	-0.32106575
69	0x3ea27504	0.317299
70	0x3de347ad	0.110976554
71	0xbda351cf	-0.07974588
72	0x3c6eccf1	0.014575229
73	0x3c999425	0.018747399
74	0x3ee1bf13	0.4409109
75	0xbeddba27	-0.43306085
76	0x3dae9e77	0.085263185
77	0xbdba0099	-0.09082145
78	0x3d15389b	0.036430936
79	0xbcb2bf6f	-0.021819798
80	0x3e710268	0.23536074
81	0xbe656e69	-0.224054
82	0xbd9ba93c	-0.07600638
83	0x3dc49f23	0.096006654
84	0x3ee47d1c	0.446267
85	0xbec98122	-0.39356333
86	0xbe7464c9	-0.23866571
87	0x3df0295f	0.11726641
88	0x3e27d747	0.16390716
89	0xbe0ddd1a	-0.13853875
90	0xbea802d5	-0.3281466
91	0x3eb1b799	0.34710386
92	0x3e760ecf	0.24029087
93	0xbe45db15	-0.19321854
94	0xbe3c52f9	-0.18391027
95	0x3daa0e58	0.08303517
96	0xbe39db2b	-0.18150012
97	0xbe570120	-0.20996523
98	0x3eb54a27	0.35408136
99	0xbeade03b	-0.33960137
100	0x3db08646	0.086193606
101	0xbd04c188	-0.03241113
102	0x3e2c295c	0.16812652
103	0x3e77e00d	0.24206562
104	0x3ea046de	0.31304067
105	0x3eb2ffb4	0.3496071
106	0xbd04f50c	-0.032460257
107	0x3d800b89	0.062522
108	0x3b0d7be1	0.002158873
109	0xbd689e61	-0.056791667
110	0xbe5af95d	-0.21384187
111	0xbec12df6	-0.37730378
112	0xbe99296d	-0.29914418
113	0xbebb30e1	-0.3656073
114	0xbd887260	-0.0666244
115	0x3d836153	0.064150475
116	0x3c9d212d	0.019180859
117	0x3d83ed41	0.06441737
118	0x3e487a4c	0.19577903
119	0x3ecff7ff	0.40618894
120	0xbe9d38f0	-0.30707502
121	0xbe994956	-0.29938763
122	0xbd703a48	-0.05864933
123	0x3d670cc0	0.056408644
124	0xbd4561f6	-0.048189126
125	0x3df77ab2	0.12083949
126	0x3e5bc7db	0.21462958
127	0x3eb61159	0.3556011

fc2.bias f4 [16]
0	0x3ab5ac12	0.0013860485
1	0x3c05c572	0.00816475
2	0x3ada5ba6	0.0016659393
3	0xbb2693e9	-0.0025417751
4	0x3b49ca34	0.0030790688
5	0x3c197d1b	0.009368206
6	0x3b466b10	0.0030276217
7	0x3bd8e1b4	0.006618703
8	0x3c0c5e43	0.008567396
9	0x3b4e6d3f	0.0031498221
10	0x3b17988c	0.0023131697
11	0x3b9ac8d3	0.004723647
12	0x3c479aa1	0.0121828625
13	0x39e9cc13	0.0004459327
14	0x3c137ab6	0.009001425
15	0x3c1786b2	0.009248422

fc3.weight f4 [32, 16]
0	0xbe320e69	-0.1738831
1	0x3e6d9bde	0.2320399
2	0xbd139d4c	-0.036038682
3	0xbd8ae0e2	-0.06781174
4	0xbd84a8b1	-0.06477488
5	0x3e71e61a	0.23622933
6	0xbda20361	-0.07910801
7	0x3de43e71	0.11144722
8	0x3e1b981f	0.15194748
9	0xbd98bf89	-0.074584074
10	0xbc0565b2	-0.008141922
11	0x3daa1c7c	0.08306214
12	0x3dae2011	0.0850221
13	0xbe12b488	-0.1432668
14	0x3e8b5351	0.27212003
15	0x3e869e11	0.2629247
16	0xbe87b84e	-0.265078
17	0x3e62b469	0.22139134
18	0x3bb4e0d5	0.005519966
19	0xbe187115	-0.14886887
20	0xbd2a9c94	-0.04165323
21	0x3e58ae43	0.21160226
22	0xbd084733	-0.033271026
23	0x3d11d664	0.03560485
24	0x3d82d9ab	0.06389173
25	0xbcd211d6	-0.02564327
26	0x3d73b36c	0.059497282
27	0x3db88620	0.09009957
28	0x3e344e3c	0.17607969
29	0xbe6899e2	-0.22714952
30	0x3eb2e169	0.349376
31	0x3ea48df7	0.3213956
32	0x3d96a37e	0.073554024
33	0xbd34d201	-0.044145588
34	0xbb241139	-0.002503468
35	0xbdcb61aa	-0.09930737
36	0x3e9f1b6f	0.31075618
37	0xbe5ba20a	-0.21448532
38	0x3ea1dfc8	0.31616044
39	0x3d466ab9	0.048441622
40	0xbe17db55	-0.14829762
41	0x3ea290ef	0.317512
42	0x3b063b67	0.0020482184
43	0xbe2bd944	-0.16782099
44	0x3e8440af	0.258306
45	0x3c11052e	0.008851333
46	0xbbea8cf1	-0.007157915
47	0xbb4ecf89	-0.0031556806
48	0x3d954713	0.07288947
49	0x3e0c98a7	0.13730107
50	0xbd83128c	-0.06400022
51	0x3dfc46ac	0.12318167
52	0xbda8acec	-0.08236107
53	0x3e36c7fb	0.17849724
54	0xbdfb3d1b	-0.12267514
55	0x3e31081b	0.17288248
56	0x3e6e5252	0.2327359
57	0xbe00a6be	-0.12563607
58	0xbdb5c5be	-0.08875607
59	0x3d799a1f	0.060937997
60	0xbded09dc	-0.11574146
61	0x3daa2e48	0.08309609
62	0x3c84db69	0.016217904
63	0x3d217f07	0.039427783
64	0xbdaf5333	-0.08560791
65	0x3e9ed5fb	0.3102263
66	0xbe5cdc5b	-0.21568434
67	0xbdb18046	-0.08667044
68	0x3d766cc7	0.060162332
69	0x3e458a6b	0.19291084
70	0xbbf60650	-0.0075080767
71	0x3eabea6c	0.33577287
72	0x3e7f2444	0.24916178
73	0xbbbd1f59	-0.005771559
74	0xbe615dc5	-0.22008426
75	0xbdb1822e	-0.08667408
76	0x3de75e1d	0.112972476
77	0xbde1f9e1	-0.11033989
78	0x3e621f01	0.2208214
79	0x3e7fa7db	0.24966376
80	0xb487c80a	-2.5291257e-07
81	0xb54083f7	-7.171761e-07
82	0xb4b15c2d	-3.3035886e-07
83	0xb413e6ae	-1.3774363e-07
84	0xb49400f4	-2.7567842e-07
85	0xb4b0540a	-3.28437e-07
86	0xb49cc44d	-2.9200092e-07
87	0xb4d5b02a	-3.9802518e-07
88	0xb46cc60b	-2.205126e-07
89	0xb49d73e2	-2.9327845e-07
90	0xb4b7594e	-3.4151384e-07
91	0xb422b7f7	-1.5154352e-07
92	0xb503f348	-4.9155324e-07
93	0xb47446ea	-2.2750069e-07
94	0xb578d6af	-9.2699605e-07
95	0xb5728018	-9.0338426e-07
96	0x3dba4d01	0.090967186
97	0xbd12a9b0	-0.035806358
98	0xbc6a7d9f	-0.014312177
99	0xbd712de7	-0.058881667
100	0x3e848f72	0.2589069
101	0xbe35cccf	-0.1775391
102	0x3e837110	0.25672197
103	0x3d80e370	0.0629338
104	0xbdceb238	-0.10092586
105	0x3e837d8c	0.25681722
106	0xbc944f74	-0.018104292
107	0xbe154c75	-0.14579947
108	0x3e44b4c3	0.1920958
109	0x3d0ca297	0.034334745
110	0xbcfbe829	-0.030750351
111	0xbcb4e0ba	-0.022079814
112	0xba0766bd	-0.00051651505
113	0x38e5eb34	0.00010963381
114	0xb9f10ab6	-0.00045975082
115	0xb9d54913	-0.0004068097
116	0xb9d1879f	-0.00039964632
117	0x38702328	5.72532e-05
118	0xb9e8ca83	-0.0004440137
119	0xb701e0d0	-7.741342e-06
120	0x36997ca4	4.5742654e-06
121	0xb9e5c814	-0.00043827354
122	0xb9e46373	-0.00043561644
123	0xb9863a43	-0.0002560188
124	0xb94b209d	-0.00019371738
125	0xba020a27	-0.0004960619
126	0x38e07d13	0.00010704449
127	0x38e8794b	0.00011085215
128	0x9dba2ca7	-4.927996e-21
129	0x9db5b829	-4.810072e-21
130	0x9e0e5caf	-7.536584e-21
131	0x9db49be0	-4.7806774e-21
132	0x9e0f278a	-7.5785335e-21
133	0x9dba8a10	-4.9376543e-21
134	0x9e0c90b2	-7.4414606e-21
135	0x9dadf613	-4.6047153e-21
136	0x9d8d18c1	-3.7347984e-21
137	0x9e0ce98a	-7.459833e-21
138	0x9e0e9520	-7.548256e-21
139	0x9e014041	-6.8424905e-21
140	0x9e0c9ced	-7.44399e-21
141	0x9db9d30b	-4.9187306e-21
142	0x9ddb7c84	-5.8097563e-21
143	0x9dd5f31f	-5.663201e-21
144	0x3ce7bbf6	0.028287869
145	0xbd3a4a89	-0.04548124
146	0x3d37ebb2	0.04490251
147	0xbd5df0ec	-0.05418484
148	0x3e29b4f5	0.16572936
149	0xbdf911ae	-0.12161575
150	0x3e3a42d7	0.1818956
151	0xbca98122	-0.020691458
152	0xbde8f7ed	-0.11375413
153	0x3e3ba667	0.18325196
154	0x3d5dbac6	0.0541332
155	0xbd76eda9	-0.060285244
156	0x3e1f021b	0.15528147
157	0x3a8e7e8e	0.0010871456
158	0x3c1209dd	0.008913484
159	0x3b1cc429	0.0023920632
160	0xaaf59f2e	-4.3631196e-13
161	0xab418bbc	-6.8761294e-13
162	0xab4d9dc9	-7.30496e-13
163	0xab010aa6	-4.5844784e-13
164	0xab4a1308	-7.179123e-13
165	0xab3a4dc4	-6.6188396e-13
166	0xab495d9d	-7.153946e-13
167	0xab1393fe	-5.243027e-13
168	0xab0e5649	-5.056828e-13
169	0xab4a4f9f	-7.1875313e-13
170	0xab5b3154	-7.7872886e-13
171	0xab382d9a	-6.5433217e-13
172	0xab61bf37	-8.020142e-13
173	0xaafa10b8	-4.4420522e-13
174	0xab7bdbf5	-8.9478365e-13
175	0xab70b6e5	-8.5518945e-13
176	0x3e7a1025	0.24420221
177	0x3ac41767	0.0014960588
178	0x3cf96a3f	0.03044617
179	0x3e7d1c49	0.24717821
180	0xbd25fdca	-0.040525235
181	0x3d9f9a7b	0.07793137
182	0xbd87d472	-0.066323176
183	0x3dd9e872	0.106400385
184	0x3e347147	0.17621337
185	0xbd956ac9	-0.07295758
186	0xbc74b356	-0.014935335
187	0x3daf2af7	0.08553117
188	0xbe3731ce	-0.17890093
189	0x3e7b8e5c	0.24566025
190	0xbe17db72	-0.14829805
191	0xbdf85efb	-0.12127491
192	0x3e703191	0.23456408
193	0xbe0eca03	-0.13944249
194	0x3e75dd6b	0.24010246
195	0x3e7e5653	0.24837618
196	0xbbf00b5f	-0.0073255743
197	0xbc1b2a4b	-0.009470533
198	0x3ce16cbb	0.027517667
199	0xbdf09b6f	-0.117483966
200	0xbc2ead9c	-0.010661509
201	0x3cbea9ec	0.023274384
202	0x3e625f13	0.2210658
203	0x3e3d54dc	0.18489403
204	0xbdcb7859	-0.09935064
205	0x3e8374e5	0.2567512
206	0xbe135da4	-0.1439119
207	0xbe1bf2cb	-0.15229337
208	0x302557f1	6.015162e-10
209	0x2fff60c2	4.645298e-10
210	0x30384bc0	6.704646e-10
211	0x3011e3f0	5.307461e-10
212	0x30141588	5.3872684e-10
213	0x3012f83e	5.3467264e-10
214	0x301ee7d9	5.780954e-10
215	0x2fbb7da0	3.4104364e-10
216	0x2fd93e04	3.9516135e-10
217	0x301fbba7	5.8110533e-10
218	0x303d8191	6.8941924e-10
219	0x302b4e8c	6.232106e-10
220	0x30378401	6.67626e-10
221	0x3021fdfa	5.893238e-10
222	0x303d8eea	6.896089e-10
223	0x3030fba8	6.438605e-10
224	0x3dd2aace	0.10286485
225	0x3e0cac8f	0.13737701
226	0xbe4ea044	-0.20178324
227	0xbd210c83	-0.039318573
228	0x3e602592	0.21889332
229	0xbd2a719d	-0.041612256
230	0x3e1f8026	0.15576228
231	0x3e9ba60c	0.3040012
232	0x3dfa306b	0.12216266
233	0x3e1d876c	0.1538369
234	0xbe6d3d67	-0.23167954
235	0xbe558bee	-0.2085416
236	0x3df8e8e9	0.12153799
237	0x3d056099	0.032562826
238	0x3929e661	0.00016202919
239	0x3d2f603a	0.04281638
240	0x2a511ee6	1.8573649e-13
241	0xab54a0e7	-7.5540827e-13
242	0x2a5a2e42	1.9378338e-13
243	0x2a9f711e	2.8322565e-13
244	0xab14a67a	-5.2811195e-13
245	0xab14d132	-5.287048e-13
246	0xaafbc1de	-4.472108e-13
247	0xab51f259	-7.458804e-13
248	0xab1cf53d	-5.576267e-13
249	0xab00e554	-4.579299e-13
250	0x2a10bc87	1.2855178e-13
251	0x294bc1cc	4.5243147e-14
252	0xab420e7f	-6.8942763e-13
253	0x2a998d53	2.7276323e-13
254	0xab4a62b4	-7.1901794e-13
255	0xab4f78ba	-7.3708715e-13

fc3.bias f4 [32]
0	0x3dc5ead2	0.09663929
1	0x3dbfbd2f	0.09362256
2	0x3d8f630e	0.07001315
3	0x3d8dba93	0.06920352
4	0x3de3d30b	0.111242376
5	0xb547dbf8	-7.4453374e-07
6	0x3d78b47e	0.060719006
7	0xb941d503	-0.00018485267
8	0x9d885f0a	-3.609717e-21
9	0x3d3975b2	0.04527826
10	0xab3bb475	-6.668618e-13
11	0x3d9f5bf6	0.07781212
12	0x3dc5fefe	0.096677765
13	0x2fed63a3	4.3180845e-10
14	0x3da21b19	0.07915325
15	0xab33192f	-6.3628524e-13
16	0x3dc0f5dc	0.09421894
17	0x3dd029d3	0.10164227
18	0x3d6d2abe	0.05790209
19	0x3db16e45	0.0866361
20	0x3d4f917d	0.050675858
21	0x9a05af7c	-2.764551e-23
22	0x3db11eb5	0.08648435
23	0x3dafd278	0.085850656
24	0xa1ba5c27	-1.2628243e-18
25	0x3dacac82	0.08431341
26	0xb081b132	-9.436347e-10
27	0x3dcc1c08	0.09966284
28	0x3dbf20fd	0.09332464
29	0x3dcec50e	0.10096179
30	0x3de88546	0.11353545
31	0x3da87925	0.082262315

fc4.weight f4 [3, 32]
0	0xbe7a6a5e	-0.24454638
1	0xbe019101	-0.12652971
2	0x3c23ed06	0.010005241
3	0xbe9439e5	-0.2895042
4	0xbf2686e5	-0.6504958
5	0x33c6138c	9.223649e-08
6	0xbcf927cf	-0.03041449
7	0xb9c681cc	-0.0003786221
8	0x1e5ec813	1.17939565e-20
9	0x3de973aa	0.11399014
10	0x2b44fe9e	6.998654e-13
11	0xbd87d84b	-0.066330515
12	0x3edc11a4	0.4298221
13	0x2f04a8b4	1.2065265e-10
14	0xbf0556e5	-0.52085716
15	0x2c18bbc5	2.1704732e-12
16	0xbf04ea9c	-0.51920485
17	0xbe92a0eb	-0.28638396
18	0xbd423b5f	-0.047419902
19	0x3e805def	0.25071666
20	0x3e0652bf	0.13117503
21	0x9a8b020b	-5.7492353e-23
22	0x3f380d6f	0.718955
23	0x3f0a3cfb	0.539993
24	0xa2657589	-3.109751e-18
25	0x3ea98fd7	0.33117554
26	0x30f28a24	1.7647079e-09
27	0x3ecda3ac	0.40163934
28	0xbe1a70b3	-0.15082054
29	0x3eb80f95	0.35949388
30	0xbeeb2bdf	-0.45931908
31	0x3ee866b9	0.4539087
32	0xbef482e2	-0.47756106
33	0xbf2df2d5	-0.6794866
34	0xbce28fd0	-0.027656466
35	0x3dffaead	0.12484489
36	0xbec04dc1	-0.37559322
37	0x3473613e	2.2666515e-07
38	0x3d6a5156	0.057206474
39	0xb93bc8e1	-0.00017908543
40	0x1e074f1b	7.163199e-21
41	0xbd245813	-0.040123057
42	0x2b0071fc	4.563292e-13
43	0x3efe49d9	0.49665716
44	0x3ef15fb1	0.4714332
45	0xb032c336	-6.5033434e-10
46	0x3d396a81	0.045267586
47	0x29b32187	7.955013e-14
48	0xbe49d640	-0.19710636
49	0x3e2a7e02	0.1664963
50	0x3f031a7d	0.5121229
51	0x3e99b969	0.3002427
52	0xbd287e6b	-0.041136187
53	0x1c605ccc	7.423532e-22
54	0xbe9774c8	-0.29581285
55	0xbd57d2c6	-0.052691244
56	0x221e544d	2.1457621e-18
57	0xbed60194	-0.4179808
58	0xb165682a	-3.3383096e-09
59	0x3de92ea2	0.11385848
60	0x3f4c0d06	0.7970737
61	0x3e820eb3	0.2540184
62	0xbef8f876	-0.4862706
63	0x3ea595fa	0.32340986
64	0x3e9e97e3	0.30975255
65	0x3e53616b	0.20642631
66	0xbf317fb6	-0.69335496
67	0x3ebcc05a	0.36865503
68	0x3dcaf97c	0.099108666
69	0x35e5b272	1.7113764e-06
70	0xbf0ff77a	-0.56236994
71	0x3883ce87	6.2850355e-05
72	0x1e381efa	9.747285e-21
73	0xbec4aa4e	-0.38411182
74	0x2a45f8c8	1.7583428e-13
75	0x3e89ea22	0.26936442
76	0x3de638f5	0.112413324
77	0x30f74c3f	1.7993286e-09
78	0xbeb32e63	-0.34996328
79	0xab5233f3	-7.467908e-13
80	0xbe89f56b	-0.26945052
81	0x3f2b08b4	0.66810155
82	0xbd370b10	-0.044688284
83	0xbeca87fb	-0.3955687
84	0xbed94232	-0.42433316
85	0x9a73f659	-5.045022e-23
86	0xbd501c58	-0.05080828
87	0xbecf4a61	-0.40486434
88	0x229d90d7	4.270829e-18
89	0x3e950698	0.29106593
90	0xb1820b69	-3.784795e-09
91	0x3f058941	0.5216256
92	0xbe2a816f	-0.16650937
93	0x3ef6e799	0.4822357
94	0xbe2aef99	-0.16692962
95	0x3cbd9163	0.023140615

fc4.bias f4 [3]
0	0xbb8215be	-0.003969877
1	0x3a652e9f	0.0008742604
2	0x3c65f4fd	0.014035461
